models/model_local_and_numerical_and_textual__data.pth (torch, 123165 bytes, 20 tensors)

network.0.weight f4 [64, 398]
00000000: 8583 883b 303d 44bd 38b7 45ba 3c0a 813d
00000010: 637e cfbd d688 6e3d 767c 183e 9390 993d
00000020: 2095 a5bd c064 c83d 3667 afbd 0ff2 fd3b
00000030: 564f 113d 1d36 b13d be7c d5bd 88e6 813d
00000040: aca2 9c3b 5562 cebd 9b77 fe3d 8dc9 443d
00000050: 8484 923d 358c 5e3d 637e a63d a919 fcbd
00000060: 8ec9 72be e36f b6bd b898 ab3d 7d28 2dbd
00000070: cf2a 153c bb3e 8fbd 0fbf d93d c15f 403e
00000080: a02d 633e 44d0 8dbe 5db7 05be 5023 0dbd
00000090: 0f58 2cbe 9cb2 ba3a e823 bbbb 626b a63d
000000a0: 4d5b 8abc 7d54 1d3d 8371 bb3d 45d4 443c
000000b0: 31ce cb3d 7cbd 223e 013d bd3d 7996 63bc
000000c0: c132 8abd 1a5c 14ba 36d7 ab3d 4c28 55bd
000000d0: 4416 a1bd 3480 a3bc a02e 613d c578 753d
000000e0: 2f50 08bd 4186 39bc 809f 16be f922 ab3c
000000f0: 31c8 1dbe 1056 29bb e1ea 553d 957e 4e3b
00000100: 8294 1e3e d916 453e 60bc 5abd 00a8 ec3d
00000110: f004 e43c a9fd ed3c 9c6e 99bd d02d 583b
00000120: aa2b 193e 232d a23d 2f9a d73d 5c80 f53c
00000130: 936b 26bc daaa 1b3e 4640 0b3e 5de7 743e
00000140: efa6 51bd ed76 d13d 4901 cc3b d76d a03c
00000150: 56d3 ecbd d09e f73d 4989 113e ac9e 22be
00000160: d0e9 3a3c ce8d 903d e336 4dbc f2a7 ebbd
00000170: 619f 363d aa1e 8abb 6061 153e 0c93 103d
00000180: 030e cdbd 4d77 dcbd 96e3 02be 9694 3f3c
00000190: 1ca0 c0bd 287f a13d 9019 9e3d bb37 923e
000001a0: 86c2 d2bd a1d6 a9bc f9fa 9abe 5098 e7bd
000001b0: 3ad5 23bd 3475 8d3d 6f3a 8bbd ce16 13be
000001c0: 3d71 4fbd 028e afbe 0795 a9bd 35b9 cfbd
000001d0: 9236 04bd 790e cb3d 0102 093e 6968 f0bc
000001e0: 304d 5cbe f4b5 253e 66de 27bb 6924 c2bd
000001f0: 9b3d 99bd e1ba 043c d6ce 8fbd 947c 878d
00000200: 6dbc d53d 5b68 96bc 3669 f13d 67e6 8e3d
00000210: e276 ba3a 4450 ba3d 48cc 6bbd 3721 23be
00000220: 18f2 f2bb 9565 603e 4033 023d 16f8 113d
00000230: 0f03 cfbd 521a 18be d208 853d c1bf 13bb
00000240: b875 6abd f44b 3ebd f9b4 ffbd 73fe 773e
00000250: ba5b 05be 0e8d 4abe e2f3 efbd 73dc 2bbe
00000260: 9411 1d3e 6e58 dbbd c322 2b3e 94ac 6a3d
00000270: 84b7 d73d 7045 f53b b92d 5a3c 1b75 093e
00000280: 64f1 2cbe 9e2e 2cbe 5703 e0bc da06 efbd
00000290: 6de9 a9be c25c d9bd c7f3 083e 759c e93d
000002a0: 876c 063e d11c 233e 4528 873d 9cb4 003e
000002b0: a475 55bd 41e7 c6bc faf6 afbd 7362 92bd
000002c0: 9f34 5c3d b327 87bc 5c00 f3bc 6640 75be
000002d0: 47ce 1fbd bc30 623d 72c5 bbbd 741f 49be
000002e0: ea2e 9b3d 3b17 abbc f12c b63c e406 833c
000002f0: e1d1 5abd a345 8dbd 416d 2bbd e361 2abe
00000300: 81f8 a1bd 4ec1 0bbe 5368 86bd 9aa7 33bd
00000310: 241a b9bc e038 1a3e 7122 51bd 6fff abbd
00000320: 6a09 3bbe 5289 62bd 8bab 773d 93af 6b3d
00000330: 55cf f83d 7275 d93c f470 0d3c 45b1 79bc
00000340: 5de7 853e 8357 493e 9968 e23c d026 eb3d
00000350: 3f3d af3d c5d9 0ebe bc56 923d 074a 71bd
00000360: c6a0 a33d 0b98 503e f35b 19be 1aaa bf3b
00000370: f777 543d d4f3 703e 1e4c 463c fca7 158d
00000380: 945a 1f3e 2add 3b3d 7a4d 86bc cf0d fb3d
00000390: 55c4 183e 3025 963d ecaa ac39 4142 d13d
000003a0: a55f af3d 1b9f 1f3e 620c ae3d 2c2a 983e
000003b0: 42e2 673d 1fc8 b6bc 2aab dc3c c6d5 9ebd
000003c0: 83fe 803d da57 cf3a cb23 2fbe 7392 303e
000003d0: cbbf dbbd 9bb0 173c 351c 8abc 0b84 0bbe
000003e0: a42c aabd c112 fcbd d4c2 b6bc 8955 6d3e
000003f0: b6eb 0bbe a5bc b8bd 8273 54be 6688 07be
0.004166069 -0.047909915 -0.00075422553 0.0630078 -0.10131528 0.058235966 0.14891228 0.074982785
-0.08085084 0.097848415 -0.08564608 0.007749803 0.03547605 0.086528994 -0.10424183 0.063427985
0.004780134 -0.10077349 0.12425157 0.048043776 0.071541816 0.05433293 0.08129575 -0.12309582
-0.237097 -0.089080594 0.08378738 -0.04227494 0.009104445 -0.06994387 0.10632145 0.18786527
0.22185373 -0.27697957 -0.13058229 -0.034457505 -0.16830467 0.0014243904 -0.0057110675 0.081259504
-0.016889239 0.038410652 0.0915251 0.0120135 0.09951437 0.15892595 0.09240151 -0.013890856
-0.06747962 -0.0005659476 0.083906576 -0.052040383 -0.07865575 -0.019958593 0.054976106 0.059929628
-0.033279594 -0.0113235125 -0.14709282 0.0208907 -0.15408398 -0.002583865 0.05222595 0.0031508554
0.15486339 0.19246997 -0.053402305 0.11555481 0.027834386 0.029051619 -0.074918 0.003298629
0.14958063 0.079187654 0.10527455 0.029968433 -0.010157484 0.15201893 0.13598737 0.23916383
-0.05118459 0.102277614 0.006225739 0.019583626 -0.11563747 0.12090838 0.14212526 -0.15880841
0.011408284 0.07058297 -0.012525293 -0.115066424 0.04458559 -0.004215081 0.14587927 0.035296485
-0.10012438 -0.10764942 -0.1278213 0.0116931405 -0.094055384 0.07885581 0.077197194 0.28558144
-0.10291009 -0.020732226 -0.30269602 -0.11308348 -0.03999827 0.0690712 -0.06798255 -0.14364168
-0.0506451 -0.3428803 -0.08280378 -0.10142747 -0.032278605 0.0991487 0.1337967 -0.029346662
-0.2151382 0.16182691 -0.0025614738 -0.09479601 -0.074824534 0.008101196 -0.07021873 -8.350008e-31
0.1043633 -0.018360307 0.117876455 0.069775395 0.0014226104 0.09097341 -0.057567865 -0.15930639
-0.0074141137 0.2191375 0.031787157 0.035636984 -0.10108005 -0.1485379 0.06495823 -0.0022544714
-0.05724117 -0.046459153 -0.1248569 0.24218158 -0.13023272 -0.1978037 -0.11716439 -0.16783313
0.15338737 -0.10710226 0.1671248 0.05729349 0.1053305 0.0074850842 0.013316565 0.13423578
-0.16888958 -0.16814658 -0.027345343 -0.11671229 -0.33185902 -0.10613395 0.13374244 0.11406795
0.13127337 0.15928961 0.06599478 0.12568897 -0.052114144 -0.024280192 -0.08592029 -0.07147684
0.05376112 -0.016498422 -0.029663257 -0.23950347 -0.03901508 0.055222258 -0.09168519 -0.19640905
0.075773075 -0.0208851 0.022238227 0.015994497 -0.053422812 -0.06898048 -0.04185224 -0.16638903
-0.079087265 -0.13647959 -0.06562867 -0.04386101 -0.022595473 0.15060759 -0.051058237 -0.083983295
-0.1826531 -0.05530674 0.06046633 0.057540487 0.121489204 0.02654526 0.008632887 -0.015240018
0.2615308 0.1966229 0.027637767 0.11482012 0.08556604 -0.1395026 0.071454495 -0.05890849
0.079896495 0.203705 -0.14976482 0.005849135 0.05187222 0.23530513 0.012103109 -4.6116374e-31
0.15561897 0.045865215 -0.016394366 0.12258493 0.14918645 0.07331312 0.00032933743 0.10217715
0.085631646 0.15588038 0.084984556 0.29719675 0.05661226 -0.022312222 0.026937086 -0.07755618
0.06298544 0.0015819028 -0.17103498 0.17243366 -0.10729941 0.009258415 -0.016859153 -0.13624589
-0.08309296 -0.123082645 -0.022309698 0.2317716 -0.13664135 -0.09020356 -0.20747188 -0.13235626

network.0.bias f4 [64]
00000000: 7018 0939 ce5f 8d38 d677 15b8 b4ad f737
00000010: 20d4 cc37 5899 2139 6028 a838 6e50 9637
00000020: d07a 67b8 a617 0ab9 968b e9b7 adef 4bb8
00000030: b6a3 df38 53ce 2538 4031 9836 af18 8b38
00000040: 3e6c 5ab8 3849 13b8 503c 1cb8 f96b c3b8
00000050: 2c50 1237 093d 10b8 f9ad 4a37 b409 a137
00000060: 66b9 88b8 1135 62b8 04ee 2238 0cd1 7bb8
00000070: 7a60 48b6 70eb abb7 ba57 8937 2396 68b8
00000080: bc8d b7b6 5817 65b7 3ae4 1b38 7ac0 da38
00000090: edd1 18b8 441b 31b6 bdb5 8937 8095 1e38
000000a0: 0671 46b8 8eb7 bab7 d871 aeb8 162c 0938
000000b0: b0db e037 7a77 a5b7 471a 0038 e684 1937
000000c0: a4b7 3238 cd8f b1b7 6101 fc37 40ef b5b8
000000d0: 40b1 3438 ee91 20b7 4533 bbb7 c82f 8e35
000000e0: 3042 8ab8 4ed5 2437 0651 8e37 049e 8038
000000f0: 9dc2 8db8 e3c1 d437 8ed0 38b8 d5a9 0c39
0.00013074442 6.741249e-05 -3.5635974e-05 2.9525581e-05 2.4417473e-05 0.00015411281 8.018385e-05 1.7918846e-05
-5.518907e-05 -0.00013169515 -2.7840764e-05 -4.8622187e-05 0.00010663962 3.953122e-05 4.5356865e-06 6.632634e-05
-5.207606e-05 -3.511572e-05 -3.724947e-05 -9.318436e-05 8.720945e-06 -3.438912e-05 1.2080644e-05 1.9197214e-05
-6.5195185e-05 -5.393202e-05 3.884548e-05 -6.0037753e-05 -2.985848e-06 -2.0494423e-05 1.6372524e-05 -5.5452936e-05
-5.470325e-06 -1.3654899e-05 3.7167432e-05 0.000104309016 -3.6435133e-05 -2.6390926e-06 1.6416301e-05 3.780937e-05
-4.731214e-05 -2.2258402e-05 -8.3181716e-05 3.2704404e-05 2.680518e-05 -1.9725168e-05 3.054205e-05 9.1504535e-06
4.2609536e-05 -2.1167007e-05 3.0041383e-05 -8.675316e-05 4.308042e-05 -9.57072e-06 -2.2316011e-05 1.0593731e-06
-6.592681e-05 9.824826e-06 1.6965449e-05 6.132948e-05 -6.7596535e-05 2.5362655e-05 -4.406325e-05 0.00013414708

network.1.weight f4 [64]
00000000: 2c84 163f 83a4 1e3f 3505 193f a544 243f
00000010: 8103 1a3f c3bb 263f f0e9 233f c271 1e3f
00000020: 8254 2c3f 1033 193f bd32 1a3f ab34 243f
00000030: de8b 313f a4db 313f d437 123f 2eb6 173f
00000040: bb39 233f 53b8 223f 36bc 263f 3c89 233f
00000050: 0fc8 233f e0ff 073f 280e 133f 938f 193f
00000060: 1072 213f 567a 0f3f b02b 183f aaaa 233f
00000070: 4273 253f c550 253f faee 213f 920d 153f
00000080: f285 2c3f 2ce5 1b3f f76b 2b3f c1f2 0d3f
00000090: 2b0d 2a3f fa0d 0a3f 8e18 2d3f 3253 0d3f
000000a0: 1b5c 1c3f 10b3 223f 9ae2 0d3f d86a fc3e
000000b0: 4ffe 153f 6aa9 1c3f 678c 1c3f 0395 053f
000000c0: c6d3 1d3f c1a1 0f3f 57cb 293f e216 363f
000000d0: 6b28 0e3f 45ae 2a3f 644a 273f e567 333f
000000e0: 87ab 1c3f d1f9 1e3f 9ec8 3a3f d08d ef3e
000000f0: c743 153f a8fd 253f c453 0d3f 0b09 203f
0.5879543 0.61969775 0.5977357 0.64167243 0.60161597 0.6513025 0.64028835 0.6189233
0.6731645 0.5984354 0.6023367 0.64142865 0.69354045 0.6947577 0.57116437 0.5926236
0.63759965 0.63562506 0.6513094 0.6388128 0.6397714 0.5312481 0.57443476 0.599847
0.6306467 0.56046045 0.5944166 0.6393229 0.64628994 0.6457637 0.63255274 0.5822383
0.67391884 0.60896564 0.66961616 0.5544854 0.6642634 0.53927577 0.6761559 0.5520507
0.6107804 0.6355448 0.5542389 0.49300265 0.5859117 0.61196005 0.61151737 0.521805
0.61651266 0.5610619 0.66325897 0.71128666 0.5553042 0.66672164 0.65347886 0.70080405
0.6119923 0.6209994 0.7296237 0.46787882 0.58306545 0.64840174 0.5520594 0.625138

network.1.bias f4 [64]
00000000: 6c33 bdbe b96e c6be a240 b4be acec 10bf
00000010: 1452 bdbe 9c4d 06bf d7a8 cdbe fef0 02bf
00000020: 1c3a 16bf d416 c9be 1e7c d2be 995c e3be
00000030: 5caa b9be 354e a2be a6bb 82be ceea d3be
00000040: d594 0bbf 4ef9 1ebf 9f21 e7be 0b3f 04bf
00000050: 4b30 e0be 0e63 eabe 5c73 0ebf 910d babe
00000060: c40b a9be 4a03 bfbe 567e c9be 502d b7be
00000070: a3c4 cdbe 0c65 25bf 6ebb 26bf 22e3 c2be
00000080: 0d5f abbe 7c00 8cbe e9ce cbbe 9c49 39be
00000090: 02f5 47bf 9e3b b4be ede4 cdbe eeff f4be
000000a0: afc3 e2be 1a1e e3be 4ae3 08be 7f3e d1be
000000b0: a962 cebe 4608 f7be 0aa2 dabe 845f 89be
000000c0: 8f2a 8bbe 8c04 d2be 112b d4be c28b 19bf
000000d0: a1cb f8be 24b4 cfbe 50c1 33bf d71f abbe
000000e0: 8edd 0abf 52ee adbe bb3b b6be e74f a4bd
000000f0: 4abb 73be eec4 f6be 48aa acbe 2057 1bbf
-0.36953294 -0.3875635 -0.3520556 -0.5661113 -0.36976683 -0.5246217 -0.40167877 -0.51148975
-0.5868242 -0.3927523 -0.4111032 -0.44406584 -0.36262786 -0.31700292 -0.2553379 -0.4139008
-0.54523975 -0.6209916 -0.45142838 -0.51658696 -0.43786845 -0.45778698 -0.55644774 -0.36338475
-0.3301679 -0.37307197 -0.393542 -0.35776758 -0.40189084 -0.6460731 -0.65129745 -0.38063914
-0.33470955 -0.2734412 -0.39806297 -0.18094486 -0.7810823 -0.35201734 -0.4021372 -0.4785151
-0.4428992 -0.44358903 -0.13367954 -0.40867993 -0.40309647 -0.482485 -0.4270175 -0.26830685
-0.27180907 -0.41019094 -0.41439107 -0.5997888 -0.48592857 -0.40567124 -0.70216846 -0.3342273
-0.54244316 -0.33970886 -0.35592446 -0.08023053 -0.23801914 -0.4819712 -0.33723664 -0.6067982

network.1.running_mean f4 [64]
00000000: 4896 793d 9a4e ce3d 975b 053d 2bce 0ebd
00000010: b04f 22bc 73aa 8ebc b8c1 aa39 ad37 f13d
00000020: 0f2f 253d 96f8 2a3c ad69 7bbd c076 6c3d
00000030: f694 4dbd 0622 6f3d 2af4 0cbd 6991 033e
00000040: 12d0 f93c 148f e23d 8d71 a53d e741 5f3d
00000050: a164 8f3d a018 93ba 9472 75bc 57e0 d43b
00000060: 67e2 a23d fa09 c63c 9e3c 9cbc 8bc3 90bc
00000070: 5826 48bd 3b5f 103e d66f 443c 732f 283d
00000080: 1d10 81bd cf4c 833c 7f1f 71bd 0989 163c
00000090: 8aa4 abbc f0f7 813d 5c9a da3c 64f2 5abc
000000a0: 9638 07be 5b16 cc3d abba 203d 1e61 ddbd
000000b0: 1312 2a3d 4a44 da3b 0207 273e 4844 89bd
000000c0: 6d96 b13d 5b29 eb3c 50de 00bd 3980 323d
000000d0: d81f 37bd fa86 b0bd 8399 a0bc 16d7 84bd
000000e0: d627 6bbc 8d2b 403d 2458 49bb 14a3 f03c
000000f0: 6a8c c1bc ae00 c5bc c833 18bd 86ce ad3d
0.060934335 0.10073586 0.03255805 -0.034864586 -0.009906694 -0.01741526 0.00032569258 0.117781974
0.04032808 0.010435244 -0.061380077 0.057730436 -0.05019089 0.058382057 -0.03441254 0.12848438
0.030494723 0.11062446 0.08078299 0.05450621 0.07001615 -0.0011222549 -0.014980931 0.00649647
0.07953339 0.02417468 -0.019071873 -0.017671367 -0.048864692 0.14098828 0.011989554 0.041060876
-0.063019015 0.016027836 -0.058867928 0.009187945 -0.020952482 0.063461185 0.026684932 -0.0133634545
-0.1320518 0.099652015 0.03924052 -0.10809539 0.041521143 0.0066609727 0.16311267 -0.06702477
0.086712696 0.028706243 -0.031462014 0.043579314 -0.044708103 -0.08619495 -0.01960445 -0.06486337
-0.014352759 0.046916533 -0.0030722702 0.029374637 -0.023626525 -0.024048176 -0.037158757 0.08486657

network.1.running_var f4 [64]
00000000: 0b17 833d 717b ce3d 08fd 143d 1d1f be3d
00000010: df7f 933d 5a64 1d3e c9fe 023e d6ba 683d
00000020: 9860 e43d bbfd c43d 4ebb 123e f076 d63d
00000030: 6466 e43d 6b04 953e ab2a a53d 674d 4b3d
00000040: 02ce e43d 08f2 433d 5ba5 d63d 5407 973d
00000050: d628 a73d b7ec 3c3d ada2 9c3d edb8 863d
00000060: b41d 963d 39eb 6c3d 27b0 c13d bda4 f53d
00000070: 0505 e23d 8d62 5b3d 4c90 063e d1d7 a73d
00000080: 1d2f b23d f65c f73d 7cff d83d 4ded 753d
00000090: 141d 493e 321f 253d 229a f93d e7b9 893d
000000a0: b1d6 c83d b931 b43d 26b4 bc3d 529c b03d
000000b0: 6b21 e73d bb1c 163d de2b 663d 8e62 283d
000000c0: f87c fc3d adc7 853d af48 fc3d 0887 5b3e
000000d0: 6588 343d 467c 0f3e ff47 8e3e ebdd 9b3e
000000e0: 1fc3 843d 4a92 8d3d 7832 963e 466f 973d
000000f0: ff35 953d 7f1a 6d3d 132d a33d a62d 643d
0.064008795 0.10082138 0.036374122 0.09283278 0.07202124 0.15370312 0.12792505 0.056818806
0.11151236 0.09618708 0.14329264 0.10471904 0.11152342 0.29104933 0.08064779 0.049634364
0.11172105 0.04783824 0.10480758 0.073744446 0.08162086 0.046124186 0.076482154 0.065782405
0.07329884 0.057841513 0.094574265 0.11994312 0.11036114 0.053560782 0.13140982 0.081954606
0.087003924 0.12078278 0.10595605 0.06004076 0.19639999 0.040312953 0.121876016 0.06724911
0.09806574 0.08798546 0.09214048 0.08623566 0.11285671 0.036648493 0.05619418 0.041109614
0.123285234 0.06532226 0.12318551 0.21438229 0.04407539 0.1401225 0.27789304 0.30442747
0.06482529 0.06912668 0.2933538 0.073942706 0.072856896 0.057886597 0.079675816 0.055707596

network.4.weight f4 [32, 64]
00000000: d937 24bd 1823 dbbd c809 00bc 986d 3d3e
00000010: cf6a e43c c28a f3bd 0b7c 7ebd c457 cabd
00000020: 5760 8b3d 28ca b0be a579 063d 6279 89be
00000030: 1cf6 13be 8573 533d c120 883c c80f 73bd
00000040: f55d 83be 6639 babc 06ed 37be d2b2 adbd
00000050: 424d 0ebe f0f7 4dbe 8cf6 813a 2b70 99bd
00000060: 1b39 04be 2b85 e73c 72d2 f33d b228 f63c
00000070: 6deb 583d 73bc 65be ea8e 20be 84cc ca3c
00000080: 25da 133d 421a a43d b329 233d e4ab 1a3d
00000090: 80bc 873e 17b1 ff3b 3b50 0b3e acf3 f83d
000000a0: 69ca 7bbe 42fa 1dbe 4983 6cbc 58f6 3abe
000000b0: cf23 40be 633c 43bd 9c43 383d f747 38be
000000c0: 5fde 83be e2c3 82be ff65 cc3d 294b 5dbe
000000d0: b578 14bd 1b6b 5a3c 7efd 9d3e 0799 013e
000000e0: 999e 1b3e 80a4 7abd 6c61 2e3d 0966 8abe
000000f0: 4494 fbbd ea1d 0fbe f610 433d 70d9 1abe
00000100: 70c9 8f3d d219 663d 56c6 073c bf32 efbd
00000110: bddc 553d 3840 263e 13a7 a4bc efa1 173c
00000120: 3769 7cbe cf45 8e3d 1573 12be ba5f 22be
00000130: a754 1f3d 03ae 74be 5085 c23d ca4e c8bc
00000140: 9910 92bc 82b6 a8bc 2b8f 043d efa7 2c3e
00000150: 4bd6 2d3e 6789 263d 23d7 1d3e 8332 38be
00000160: d105 4f3d ceb6 09bd 78c4 38be b622 39be
00000170: a209 023d f105 adbc 964e 013e e516 80bd
00000180: a3bc b33d 198c 80be 3af7 61be 0594 963c
00000190: 9f53 24be 1ebf 123e d3fb 78be 0c60 973d
000001a0: 1d35 043e 653f 8dbd 646f df3d 1cff fb3d
000001b0: 2a16 9dbd f27c 443e 2a04 7dbe 104f 3f3d
000001c0: b839 77bc 03b2 d23c 4e98 b9be 96e9 f7bc
000001d0: 4a2c fb3d 94de 86be 928b 5ebe 3e7a 8ebe
000001e0: 0204 74bd 80e0 0d3e c309 8bbe d49a 8f3c
000001f0: 596c b73d bd8c 893c 9ab9 71bc de06 37bd
00000200: 4edf 713d 48c6 42be e737 6c3e 910b f5bd
00000210: b54a 503e 104d f43d 9507 89be 8486 29be
00000220: cb4c fdbd 7933 d23c 2044 2cbe 57de 233d
00000230: 53eb 2fbe 1caf 20bd 4512 473d 51d1 0a3e
00000240: 7c32 9abd 8029 03bd e12d 95bd 059b 14be
00000250: cf14 5bbd e2b8 5c3d 70f8 69be af52 dbbd
00000260: e3c2 54be 340c 353e 0776 79be dc13 b83d
00000270: edb2 13be 419d 823d 1803 31be 1085 103e
00000280: f92a 93bc 243e 00be d8c1 93bd fb5a c1bd
00000290: b618 2abd e36c 56be 29bc b4bd 8c74 5abe
000002a0: 5d53 72bd 3589 373c eb9c e33d b7c2 a1bb
000002b0: 96d9 e0bd f719 76be 7f80 02be 2379 123d
000002c0: c28e 14be 18b3 963d 1768 f6bd c23b 67bc
000002d0: 6277 bbbd 44ca efbd af06 16be e21a 423c
000002e0: 7e2a 7abd a0b0 9f3c 6a91 c9bc f63c d3bc
000002f0: b931 203d 6ca1 c1bc 48d6 3e3e d908 fcbd
00000300: d8cb 42be e2dd 00be 3a70 36bd 4cb8 253e
00000310: 1556 58bc 0c12 8fbe 81f1 f1bd 2030 c7bd
00000320: 8682 183e b651 a4be 0908 533d 27f4 4fbd
00000330: 1b50 49bd c684 aa3d 54a4 d1bc 20dc 5bbe
00000340: 4056 b6be 909d f2bc 91a8 99bd 64f0 9cbd
00000350: 425e 55be 97e3 89be 6bcf eebd 0cd2 233d
00000360: 7662 c83c 4fb4 febd df78 d13d 5c15 bb3d
00000370: 1b4d 5e3d 15e4 1dbd aa10 cbbd 368a 64bc
00000380: 67cb 4c3d f96c 9a3d fe55 e63d d37e 233d
00000390: d1c7 483e ba6e e0bd 0e1e 463d 0f91 dc3c
000003a0: b488 71be 4aa9 09be 1b1c 8bbc 2a24 2fbe
000003b0: 94b8 aebc ea87 d4bc 9871 e13c 1d3f 72be
000003c0: 000c 7ebe 2ff6 6cbe c354 9c3d 92ea 19bd
000003d0: 1835 1fbe acbb 343c afc6 2f3e 9924 d93d
000003e0: e570 da3d a1f4 17be 1a3b 1e3e 1b78 7dbe
000003f0: 9527 63be cff7 ddbc 2103 e63b 90ca d4bc
-0.040092323 -0.10700053 -0.007814832 0.18498838 0.027882962 -0.118917 -0.062130015 -0.09880021
0.06805485 -0.34529233 0.032830853 -0.2685042 -0.14449352 0.05162384 0.01661718 -0.059341222
-0.2565762 -0.022732448 -0.17961511 -0.08481373 -0.13896659 -0.20114112 0.0009915396 -0.074920975
-0.12912409 0.028261742 0.11905374 0.030048702 0.052958895 -0.22435169 -0.15679517 0.024755724
0.03609671 0.08012821 0.03983469 0.037761584 0.26511002 0.007803093 0.13604824 0.12155852
-0.24588932 -0.15427497 -0.014435598 -0.18258035 -0.1876366 -0.04766501 0.044986352 -0.17996202
-0.25755593 -0.25540072 0.09980392 -0.21610703 -0.036247928 0.0133312 0.30857462 0.12656032
0.15197219 -0.061192036 0.042573377 -0.27030972 -0.12284139 -0.13976255 0.047623597 -0.15122008
0.07020843 0.056176968 0.008287033 -0.11679601 0.052212466 0.16235435 -0.020099198 0.009254917
-0.24649511 0.06946909 -0.14301713 -0.1585683 0.03889909 -0.23894505 0.094980836 -0.024451632
-0.01783018 -0.020594839 0.032363098 0.16860937 0.16976278 0.04065838 0.154141 -0.17988019
0.050542656 -0.0336216 -0.18043697 -0.18079647 0.031747468 -0.021120997 0.12627634 -0.06254367
0.08776214 -0.25106886 -0.22066966 0.018381128 -0.16047524 0.14330718 -0.24314813 0.07391366
0.12910886 -0.06896857 0.10909918 0.123045176 -0.07670243 0.19188288 -0.2470862 0.04670626
-0.015089445 0.025719648 -0.36249012 -0.03026275 0.12264307 -0.2634169 -0.2173293 -0.27827638
-0.059574135 0.13855171 -0.27155885 0.017529882 0.089562126 0.016790742 -0.0147537235 -0.044684283
0.05905085 -0.19020951 0.230682 -0.11965097 0.20340998 0.11928761 -0.26763597 -0.1655522
-0.12368163 0.02565931 -0.16822863 0.04000696 -0.17179613 -0.039229497 0.048601408 0.1355641
-0.075291604 -0.032022 -0.07284141 -0.1451226 -0.05348664 0.053887255 -0.22848678 -0.1070913
-0.20777468 0.17680436 -0.2436143 0.08988163 -0.14423724 0.0637765 -0.17286336 0.1411326
-0.017964827 -0.12523705 -0.07214707 -0.09441181 -0.041527472 -0.20939974 -0.08824951 -0.21333522
-0.059161533 0.011202146 0.11113914 -0.004936542 -0.10979001 -0.24033342 -0.1274433 0.035760056
-0.14507583 0.07358378 -0.12031572 -0.0141133685 -0.0915363 -0.11708501 -0.14650987 0.01184723
-0.06107568 0.019493401 -0.024605472 -0.025785904 0.03910992 -0.023636542 0.1863643 -0.12306375
-0.19023073 -0.12584642 -0.04454062 0.16183585 -0.013204117 -0.27943456 -0.11813641 -0.09725976
0.1489354 -0.3209359 0.051521335 -0.05076995 -0.04914866 0.08326106 -0.025591053 -0.2147069
-0.3561268 -0.029616147 -0.075028546 -0.076630384 -0.20836738 -0.2693145 -0.116606556 0.03999524
0.024461012 -0.12436735 0.102281325 0.09134933 0.054272752 -0.038547594 -0.09915288 -0.013948968
0.049998667 0.07540316 0.112468705 0.03991587 0.19607474 -0.109586194 0.048368506 0.026924638
-0.23587304 -0.13443485 -0.016981175 -0.17103639 -0.021328248 -0.025943715 0.027519986 -0.23656888
-0.24809265 -0.23140787 0.076333545 -0.03757722 -0.15547597 0.011031073 0.17165636 0.106026836
0.10666064 -0.14839412 0.15452233 -0.24752848 -0.22183068 -0.027095703 0.007019416 -0.025975496

network.4.bias f4 [32]
00000000: 8019 5236 63d4 1338 e863 24b7 90eb f8b7
00000010: 50f7 e036 8860 6037 7690 a3b7 345d a8b7
00000020: c05e d036 6ab7 5fb7 c0cd 8db6 76ef 93b7
00000030: 9e2e c3b7 80a6 8634 da1e ffb7 0ab5 17b8
00000040: 72d7 bc37 cfd9 13b8 35ed 5c37 ac8c b636
00000050: 4c17 4535 2ee4 adb7 74f8 6a38 d850 1638
00000060: ca4b 1fb8 1015 2638 5e70 4736 a472 9938
00000070: 412b 8338 a82d 55b6 da00 2db7 0881 63b6
3.1307281e-06 3.524533e-05 -9.798423e-06 -2.9673596e-05 6.704511e-06 1.3373916e-05 -1.9498384e-05 -2.0070562e-05
6.2099134e-06 -1.333454e-05 -4.22608e-06 -1.7635273e-05 -2.326752e-05 2.508059e-07 -3.0412735e-05 -3.616981e-05
2.2511671e-05 -3.525038e-05 1.3168251e-05 5.440399e-06 7.342212e-07 -2.0729462e-05 5.6021338e-05 3.583808e-05
-3.7979138e-05 3.95971e-05 2.9718717e-06 7.316962e-05 6.2546234e-05 -3.1766049e-06 -1.0311802e-05 -3.3900742e-06

network.5.weight f4 [32]
00000000: 37fc 2c3f b874 373f 00e7 263f f028 363f
00000010: 8c38 283f 62fd 3c3f 1bb0 2e3f 14ec 463f
00000020: ae3f 243f 4ea7 283f d38c 213f a10c 373f
00000030: 0947 283f 96a8 3d3f d8a7 293f 8454 3e3f
00000040: ab96 323f 88ae 2c3f 01cc 383f 1074 4e3f
00000050: b84c 373f acd7 0d3f 0cec 3a3f 2c92 2c3f
00000060: 93d1 393f 8125 1f3f 3f07 293f 4167 4a3f
00000070: 0ee3 373f 345b 323f eefe 403f 7ab4 333f
0.6757235 0.71662474 0.6519623 0.71156216 0.65711284 0.7382413 0.68237466 0.77703977
0.6415967 0.65880287 0.63105506 0.71503645 0.6573339 0.74085367 0.66271734 0.7434771
0.6976115 0.67453814 0.72186285 0.8064585 0.7160144 0.55407214 0.7301643 0.6741054
0.7258541 0.621666 0.6602668 0.790638 0.7183083 0.69670415 0.7538899 0.7019726

network.5.bias f4 [32]
00000000: eb78 6ebe 114b bcbd 62b4 aebe 2ce4 fcbd
00000010: b9f5 42be 73b8 83be f294 c9bd 8696 80be
00000020: 01b3 adbd 385d a9bd 8d1c 11be 8865 29be
00000030: 97d5 24be 2405 3abd 37ce 6cbe c76e b7be
00000040: d189 8fbe 69dd a8bd 3811 02be 6a27 76be
00000050: 4162 23be 8a1a 9d3d 22bf 72be 9fed 6dbd
00000060: a9e7 5cbe 2e1a 2cbc 06b2 1abe 8d3d 56be
00000070: ff98 8fbd 2b53 ebbd 68a9 58be 68e0 4abe
-0.23288314 -0.09194005 -0.34121996 -0.12348208 -0.19039048 -0.2572666 -0.09842862 -0.2511484
-0.08481408 -0.08269733 -0.14171048 -0.16542637 -0.16097103 -0.04541506 -0.2312554 -0.35826704
-0.28034833 -0.08245356 -0.12701881 -0.24038473 -0.1595545 0.076710775 -0.23705724 -0.05808794
-0.21572746 -0.010504289 -0.15106973 -0.20921917 -0.070116036 -0.114904724 -0.21158373 -0.19812167

network.5.running_mean f4 [32]
00000000: 8d64 7ebe 8ecc 41be ccce 6cbe 2d6b 7ebe
00000010: eb76 37be 6e9b babe ccb4 f0bd e1ff a1be
00000020: c027 c6bd 41f7 33be c1d3 2fbe 8c3a 99be
00000030: 0f4c 1cbe 127f 773d b0af 11be d543 edbe
00000040: d61f 43be 44d4 9bbd 12dc 16be f151 bcbe
00000050: 902b 0bbe ce70 b93d 8084 36be 1ce0 89bc
00000060: f613 96be 44c7 bdbd e816 a4bd ead6 adbe
00000070: 7935 cbbd 4b45 31be 990b f6bd 41dc 7fbe
-0.24843045 -0.18925688 -0.23125762 -0.24845572 -0.17916457 -0.36446708 -0.11753234 -0.31640533
-0.096755505 -0.17574789 -0.17170621 -0.2992748 -0.15263389 0.060423918 -0.14227176 -0.46340814
-0.19055113 -0.07608846 -0.14732388 -0.36781266 -0.13590837 0.09054719 -0.17823982 -0.016830496
-0.29312104 -0.092665225 -0.080121815 -0.3395303 -0.099223085 -0.1731159 -0.12013931 -0.24986364

network.5.running_var f4 [32]
00000000: 61a5 9c3e f311 c33e bd93 563e 9c8d 963e
00000010: e709 953e 3a64 903e f02d a83e b237 a73e
00000020: 1129 7a3e 8075 9f3e 1c3d 893e 79c3 bc3e
00000030: 5adf aa3e ad02 af3e 44f8 a33e b76d 923e
00000040: 0801 9b3e 49a1 ac3e c381 da3e 7e4b b83e
00000050: 4292 a43e 5feb 953e e570 963e 9fd1 be3e
00000060: 65e0 bd3e e6b1 ae3e 37d1 963e 5675 ca3e
00000070: 3733 e63e c8ad ae3e e73a 843e c8f0 b43e
0.30594924 0.38099632 0.20954795 0.29404914 0.29109117 0.28201467 0.32847548 0.3265968
0.24429728 0.31144333 0.26804435 0.36867884 0.3337353 0.3418173 0.3202535 0.2859933
0.30274224 0.337168 0.42677125 0.35995096 0.32142836 0.29281136 0.29383007 0.37269303
0.37085262 0.341201 0.29456493 0.39542645 0.4496095 0.3411696 0.2582619 0.35339952

network.8.weight f4 [16, 32]
00000000: 79e7 23be 827e 47be 1d55 c23d 82b9 bdbc
00000010: 4123 14bd 2ab5 703e 70c3 5bbe 4d3a 453e
00000020: 425a 6bbe 20ad 37be 5451 993d a591 543e
00000030: 0e5c 07be 5720 1b3d b0ab 38be b55c 423e
00000040: 59b9 42be 3fdd 27be 5ae5 8e3a 4d95 6f3e
00000050: fb8b e5ba dc4c 50be f505 3fbe 503f 343c
00000060: e57c bb3d 0f77 9fbd d6ca 5fbe fee6 263e
00000070: fd8b a33c cda3 c4bd 96af 213d 41b7 fdbd
00000080: 85fb 0fbe 6c36 593e 51ae 383d 444c 87be
00000090: 5ecf 62be bbd7 e13d 6222 803e c021 55be
000000a0: 978e a13d b8b5 9c3d dafa 973b 4f89 29be
000000b0: 20e1 65be df41 0ebd a9f0 2bbe 1b20 953d
000000c0: fee3 6abe a3fd 4e3e b6db 0a3d a4db 3cbe
000000d0: 551a 1abe ca5e 153d f307 2f3e b75f 26bc
000000e0: 1f19 62be 1f50 633b f6c2 0dbe 4510 73be
000000f0: 1a8a 61bb 5958 5f3e 292e 8bbd e61e 50be
00000100: acab 213e 09dd 59be 259f 38be 01dd 573e
00000110: 78cf 543e 68df 793c 48b8 70be fe61 9c3d
00000120: 536d 37be 72e6 83bd 0ccc 2dbe d3a3 833d
00000130: 094d a33d 46dd 3ebe 86f8 e43d 1a07 bb3d
00000140: 85c1 273e 6f13 74be 1f42 1bbe ebde 6c3c
00000150: 240a e7bd 56bb 9abc a3c1 14be 8766 03be
00000160: 87f4 81bc 4bd3 a6bd 91a6 753d 1e1b 533c
00000170: 6a22 3abe 1ce3 92be 032e 17be 683c 5e3e
00000180: 21a8 46be ffa1 263e 0b83 f23c f440 98be
00000190: 3b49 1bbe 79ad c33d b6e1 663e 43ad e2bd
000001a0: 854b 963d 3a52 9c3d 4f59 22bc 1fc7 05be
000001b0: f60d 5cbe d37a e5bc 0994 69be 47a2 023e
000001c0: f108 4cbe 108c 3d3e eaf4 37ba 80e1 a3bd
000001d0: bfaf 72be e2c3 09bc d883 e83d 151b 17bd
000001e0: 5c50 7cbe 5206 353b ac9d 44be b59d 04be
000001f0: c09d 99bd 6e5a 703e 7f12 23be 37fe 3abe
00000200: 8305 04be 9ab0 75bc 21de c63d 472b 13be
00000210: b255 a7bd 0599 a93e 3645 d5bb a1e8 9c3d
00000220: 8b87 1ebe 36fb 37be fa28 b33d 5fdd 623d
00000230: 2a08 1dbe 957c 85be aaab 03be fc34 9d3e
00000240: 3415 58be c784 403d 9b0e 80be 1c0e 0b3e
00000250: bcb4 14be e53a 01bd 2698 45be 33b3 4fbe
00000260: 0ba1 3bbd 3286 9a3c afe4 11be 73d4 993d
00000270: ccf2 8fbe 560c be3c c19c fabd f05b c2bd
00000280: d220 4ebe 92ee 563e 3977 d73c 52db 03be
00000290: d7a1 2cbe d470 d5bc 750e e73d 5cbf 803c
000002a0: 2c0e 893c 8e4b 5abd c6ae f93a 6fe2 183d
000002b0: 2910 5bbe b627 9f3e 989b 31be 177a a4bd
000002c0: 976a 20be 7c9f 0e3e 30b4 993e b027 6fbc
000002d0: 6310 623e 0002 1a36 876a 043e 12d8 433e
000002e0: e92b 173e a1fe ad3c 86da e8bd 8444 19bb
000002f0: 42ae 4f3e 1c2b 033e 9189 9c3e d941 6abe
00000300: 5575 273d 6b2e bfbe 72fd 86be 73e9 743e
00000310: 4938 173e d6db c4bd 2490 8fbe 4cca 263e
00000320: 0104 96be ce94 5abe c86f afbd 27c8 d63d
00000330: f9e2 d53d 2918 193d fc8c 043e dd17 99bc
00000340: a584 ec3d bb5c a0be 427a ddbc 5ba1 2e3e
00000350: 3087 d73c d122 7cbd 6080 99be 6ee7 0c3b
00000360: 7341 c83d 2a0b aabd 9756 aa3d ab56 dc3d
00000370: 1cba 6fbc aa9b adbe 9efb 8a3b a5b6 f63d
00000380: de90 56be 6796 db3d a7fb 76bc 6cab 07be
00000390: 5052 88be c1ba 383b ae3c 103e 694e 2d3d
000003a0: 0f00 613c 213f 143c c071 4a3d 49c8 1b3d
000003b0: 9b29 2cbe e482 883e e524 48be 700a 0dbe
000003c0: bb49 0dbe ce8c 063e fd01 693e a3b3 233d
000003d0: e0b9 843e ca01 933c eae8 c73d dcb9 863e
000003e0: 3dfc f73d 5531 aebc 91cd 00be c7f6 023c
000003f0: d282 853e e20b 1a3d d8af ac3e 8882 78be
-0.16006269 -0.19481853 0.0948889 -0.023159746 -0.036166433 0.23506609 -0.21461272 0.19260521
-0.2298365 -0.17937136 0.07486215 0.20758684 -0.1321871 0.03787264 -0.18034244 0.18980677
-0.19016017 -0.16392992 0.0010902092 0.23396797 -0.0017513031 -0.2034182 -0.18654616 0.011001423
0.09154681 -0.077863805 -0.2185472 0.16299054 0.019964213 -0.09601555 0.039474092 -0.123884685
-0.14060791 0.21212167 0.045088116 -0.26425374 -0.22149417 0.110274754 0.25026232 -0.20813656
0.07888525 0.076518476 0.004638058 -0.16556285 -0.2244916 -0.03473079 -0.16791023 0.07281514
-0.22938535 0.20213942 0.03390094 -0.18443161 -0.15049107 0.03646735 0.17092876 -0.010154656
-0.22079895 0.0034685207 -0.13843903 -0.23736675 -0.003441459 0.21811046 -0.06795914 -0.20324287
0.15788144 -0.21275724 -0.18029459 0.210804 0.20782268 0.015251018 -0.23507798 0.07635878
-0.17912798 -0.06440438 -0.16972369 0.06427731 0.07973678 -0.18639097 0.111802146 0.09132214
0.16382416 -0.23835538 -0.15161942 0.014457445 -0.11281231 -0.018888157 -0.14526992 -0.1283208
-0.01586367 -0.0814577 0.059973303 0.012884883 -0.1817719 -0.28688896 -0.14763646 0.2170273
-0.19400074 0.16272734 0.029603502 -0.29737055 -0.15164654 0.09554572 0.2254704 -0.11068203
0.07338623 0.07632871 -0.009908988 -0.1306424 -0.214897 -0.028012669 -0.22810377 0.12757216
-0.19925286 0.18510461 -0.0007017391 -0.08001995 -0.23699854 -0.0084085185 0.11353272 -0.03689106
-0.2464003 0.0027622175 -0.19200772 -0.12950785 -0.075007915 0.23471996 -0.15925024 -0.18261038
-0.12892728 -0.014995718 0.097103365 -0.14371978 -0.08170642 0.33124557 -0.0065084947 0.07661558
-0.15481393 -0.17966923 0.0874805 0.055386897 -0.15335146 -0.2607161 -0.12858453 0.30704486
-0.21101838 0.047001626 -0.25011143 0.13579601 -0.1452207 -0.031550307 -0.19296321 -0.20283203
-0.04580788 0.018862817 -0.14247392 0.075112246 -0.28114927 0.023199242 -0.1223693 -0.09490192
-0.20129707 0.20989445 0.026301967 -0.12876633 -0.16858612 -0.026054777 0.11282054 0.015716247
0.01673039 -0.05329471 0.0019049279 0.03732532 -0.21392883 0.31084985 -0.1734451 -0.08031099
-0.15665661 0.13928026 0.30020285 -0.014596865 0.22076564 2.2948952e-06 0.12931262 0.19125393
0.14762844 0.02123958 -0.11369805 -0.0023386786 0.20281318 0.12809414 0.30573705 -0.22876681
0.04088338 -0.37340102 -0.26365238 0.23917179 0.14767565 -0.09612243 -0.28039658 0.16288108
-0.2929993 -0.21345827 -0.085662425 0.10487395 0.10443682 0.037376557 0.12944406 -0.018688137
0.115487374 -0.31320748 -0.027035836 0.1705374 0.02630958 -0.06155664 -0.29980755 0.0021500248
0.097781084 -0.083029106 0.08317297 0.10758718 -0.014631774 -0.33907825 0.004241421 0.120465554
-0.209537 0.10722046 -0.015074647 -0.13248986 -0.266253 0.0028187486 0.14085647 0.042311106
0.013732924 0.009048254 0.049424887 0.038032804 -0.16812746 0.26662362 -0.19545324 -0.13773513
-0.13797657 0.1313965 0.22754665 0.039966237 0.2592306 0.017945189 0.09761222 0.26313674
0.121086575 -0.021263758 -0.12578417 0.007993407 0.2607637 0.03760899 0.33727908 -0.24268544

network.8.bias f4 [16]
00000000: d3ff 5438 7c87 bc37 fad2 4ab8 3bd2 e0b7
00000010: e808 6637 84a5 1a37 4897 07b8 c96e b138
00000020: 6864 a736 de41 ddb7 2800 31b7 1250 abb8
00000030: 4c06 b436 9a81 0db8 0fa2 6a38 2dcb 44b8
5.0782994e-05 2.2474436e-05 -4.835704e-05 -2.6800777e-05 1.3711142e-05 9.217652e-06 -3.23274e-05 8.460653e-05
4.9886767e-06 -2.6375925e-05 -1.05500585e-05 -8.16883e-05 5.365151e-06 -3.373772e-05 5.5940876e-05 -4.6919264e-05

network.9.weight f4 [16]
00000000: ec57 7b3f 6e0a 893f 07d5 793f f2bc 893f
00000010: 48e4 7b3f 1316 943f c627 803f 900d 8c3f
00000020: 20fc 6f3f e9f7 7f3f 0055 8a3f bedf 8d3f
00000030: 7442 853f 8e89 813f 9429 873f 3102 833f
0.98181033 1.0706308 0.9759068 1.0760787 0.98395205 1.1569237 1.0012138 1.0941639
0.9374409 0.99987656 1.080719 1.1083906 1.0410905 1.0120103 1.0559564 1.0235044

network.9.bias f4 [16]
00000000: b221 f6bb 3348 c73d a369 b4bd 8fcd af3d
00000010: 9c2c d5bd ced1 fd3e f9fa ddbc 7bbf ce3e
00000020: 8fba 883d 822e ac3e 4ca4 823e aa5f 223d
00000030: 7892 83bc cae5 95bd 1414 65bc 6864 59bd
-0.007511341 0.09730568 -0.08809211 0.08584129 -0.10408899 0.4957413 -0.027097212 0.40380463
0.06676208 0.33629233 0.25515974 0.039642014 -0.016061053 -0.073192194 -0.013981838 -0.05307427

network.9.running_mean f4 [16]
00000000: 1b00 80be f526 64be f5e5 88be 40ee 8fbe
00000010: b57e cfbe be9b 7b3e fee2 59be 2f50 5c3e
00000020: dcac 7bbe e33e 453e 2c2b 813d 19d1 fbbd
00000030: 4d3e 33be 8882 95be 7ee6 89be ae4f 63be
-0.2500008 -0.22280486 -0.26737943 -0.28111458 -0.40526357 0.2457113 -0.21277997 0.21514963
-0.2457766 0.1926227 0.063070625 -0.122957416 -0.17504235 -0.2920115 -0.26933664 -0.22198364

network.9.running_var f4 [16]
00000000: 7cb8 313f ddb7 5e3f d225 643f 4c22 563f
00000010: b0b4 233f 9273 953f c2db 823f 3ab0 9c3f
00000020: 8515 453f 4862 6b3f 5a95 803f e91f 493f
00000030: b7a9 483f 23da 643f 959f 333f 7bce 5d3f
0.69422126 0.86999303 0.8912021 0.8364608 0.6394758 1.1675894 1.0223315 1.224128
0.7698596 0.9194684 1.0045578 0.78564316 0.78383964 0.8939535 0.7016538 0.8664319

network.12.weight f4 [5, 16]
00000000: f18b 963e 0020 cdbd b1d0 2cbd ed73 70be
00000010: 6d6b 473c 3169 723d f5f7 823e b065 8a3e
00000020: f55d 533e c6b0 843e ff96 403e e3c2 0ebf
00000030: 3b34 01bf 9fa9 0fbf ad5e 97be a179 06bf
00000040: 0cb3 673e d299 cabb 4bf2 963e 9993 ebbd
00000050: 3493 833e b94d 9abe 3a54 703e 23c8 26be
00000060: 6801 3d3e 9672 88be 0231 5cbe 23f0 bbbe
00000070: e613 25be b00f 11be f42a 87be 26b0 cebd
00000080: f4c6 253d 8bfc 7f3e 78e3 f9bd 104f 033e
00000090: 2221 843e f39d 89bd ef4c 8abe 74c6 933d
000000a0: 510f ce3d d673 623c 2f54 98bd bde0 883d
000000b0: 8868 583e 0f8b 403e 2f65 e13d 7f0f 5b3e
000000c0: cf24 a3be eff6 a23e 1b82 9ebe 0469 1f3e
000000d0: 3ac5 95be 9231 773d 3617 f4be 6068 653e
000000e0: 5cb4 8ebe 75d5 513e 4274 313e e862 2c3e
000000f0: 2ca6 0fbe 10c0 98be fda8 2e3e 0c9d d4be
00000100: a05f 05bf a6ab 02bf 497c c13e 4527 3dbf
00000110: 8ca8 d9be 577a 88bf 1fc9 a43e 0f2e 82bf
00000120: 7f4b ffbe f07c 79bf 6dcf 81bf 01cf 593e
00000130: b886 6f3e d91e 6f3e 39e2 2dbf 940a 623e
0.29403642 -0.10015869 -0.04219121 -0.23481722 0.012171608 0.05918235 0.255798 0.27030706
0.2064131 0.25916117 0.188076 -0.55766124 -0.5047032 -0.56118196 -0.2956442 -0.5252934
0.22626895 -0.0061828876 0.2948173 -0.115027614 0.25698245 -0.30137423 0.2346963 -0.16287284
0.18457568 -0.26649922 -0.2150307 -0.36706647 -0.16120872 -0.1416614 -0.26399958 -0.100921914
0.04047294 0.24998681 -0.12201589 0.12823129 0.25806528 -0.067195795 -0.2701182 0.07215586
0.10061515 0.013821563 -0.07437932 0.066834904 0.21133626 0.18803047 0.11005627 0.2139263
-0.3186402 0.3182902 -0.30958638 0.15567404 -0.29252034 0.06035001 -0.4767396 0.22403097
-0.27871978 0.20491584 0.17329505 0.16834605 -0.14028233 -0.29834032 0.17056651 -0.41526067
-0.5209904 -0.51043165 0.37790135 -0.73888046 -0.42511404 -1.0662335 0.32184693 -1.0170306
-0.49862286 -0.97456264 -1.0141426 0.21270372 0.23391235 0.23351611 -0.67923313 0.22074348

network.12.bias f4 [5]
00000000: 0d7a 52be 09ca 933e 15fc cfbe 7cc4 2bbe
00000010: 7033 d73e
-0.20554371 0.28865078 -0.4062201 -0.16774172 0.4203143
